stable.pt (torch, 135119 bytes, 6 tensors)

layer_1.weight f4 [87, 289]
00000000: 68ae bf3d 67c8 273e c394 9b3d a915 e83d
00000010: 3d7c 4c3e 85d7 023e 940f 2d3e cec0 513e
00000020: 7334 c83d 6ff7 513e 4448 333e 1978 d63d
00000030: 96b6 033e 80d2 1d3e 810c 323e ba75 d33d
00000040: 28a7 3a3e 641d a53d e52e 273e 70c2 3a3e
00000050: 946c 043e 2cab 483e 876b 3a3e e871 7c3d
00000060: 5a35 c83d 6150 313d 7d49 663c 8696 a3bd
00000070: c8d9 3dbd 2198 36be 0c74 c5bd ef8b 103e
00000080: 240b d3bd 9897 b2bd f555 f8bc 2760 d83d
00000090: 5559 bbbc 3c5e 453d 8f55 bd3d b446 d03d
000000a0: c3f0 a23d 1933 c2bb 3b9b 09be 707c b83d
000000b0: 2cf3 d13d 233c 17bd e097 8d3d 11a4 513d
000000c0: 05a1 f7bd 4267 c9bd 6c79 ffbd 5363 a3bd
000000d0: 4864 90bc 8e95 823e c691 f7bd 8ff6 33bd
000000e0: c48a c0bd 3a82 b13c 2387 fc3c a8cd e6bc
000000f0: ecd7 9c3d 6437 8f3d c406 75bc c7ab ae3d
00000100: 3b6a 0ebd 1fc9 18bd d3b1 e23d 1883 1e3d
00000110: b670 1a3c e1b5 813d cd21 e73d ebdc 22be
00000120: ecdb 81bd 034e aa3c 4036 0bbe 1337 803d
00000130: d2eb aabc cd78 8cbc a583 05be bd84 0c3e
00000140: cee2 dcbc ff26 c6bc 0190 febc 4f0d d13c
00000150: b929 073e 0f85 8cbd b25f 323e 2ad2 0f3e
00000160: 10b6 b13b 3c7b 8ebd 050d 5dbd dca2 843c
00000170: dc5b de3d 38a3 fc3d 4a31 6b3d d968 17be
00000180: 019a 14be 43c3 0cbd 1012 073e d1a5 27bd
00000190: 7e15 703d 3fac 283e 4a29 3aba 869f fabd
000001a0: 803a c3bd d3e2 19be b285 ffbd bd14 05bc
000001b0: 06e5 a2bd 7a13 2dbd 6344 f23d 39dc 383e
000001c0: 529d 2d3e ff5d 0bbe 8376 383e 0a11 e1bc
000001d0: a1e9 d8bd 4f31 873d 1a5b d13d 5b25 a43d
000001e0: 8a01 d4bd b600 fcbd c80f 6abd 3fac 7bbe
000001f0: 66a7 153e dd2a c73d 7850 5cbd e675 e2bd
00000200: d19c 22bd 7fb9 1d3e 1e02 a2bb 6147 4c3e
00000210: f57a 9ebd cbe9 413e 0bcd 9bbc 5e64 a5bc
00000220: c75f c93c 210d b53c 4c1e 99bd da31 023e
00000230: f57f 1f3e e14d 44be f4f6 ab3d 5032 5fbd
00000240: 6f78 f7bd f9de 6dbd 0d6f 01bd 0f1f 473e
00000250: 34c9 0f3e 40ec 243e 882c 69bc 73d7 54bb
00000260: bacd 513e 4988 1f3e dc2f 923d 1026 a43b
00000270: 9b5b 443e c306 c03d fd84 25bd c96e 183d
00000280: 5023 333e 0f68 02be bc9e 923d df94 e5bd
00000290: 2cb2 6b3d 47d4 783e 8065 273e 7368 0c3e
000002a0: 4324 8a3d b8ae bebd cb6a cebd 0820 b0bd
000002b0: de5b 92bc 3846 45bd 779a 5abd b0bb 3a3d
000002c0: 347d f7bd 871f 2d3e 8c0f f73c 5d21 81bc
000002d0: 7d2d f43d e3f9 2ebd 3918 fabc 04aa aabd
000002e0: d285 dc3d d121 b13c ee11 9dbd 1c0a 763e
000002f0: 6ae2 0fbc 5c28 ab3d d143 383e b69e df3d
00000300: 922f 763b a756 373e 501a 31be 51ed 1d3e
00000310: f640 c5bc 932f 48bd f60b 80bd e881 b1bd
00000320: 0b77 febc 9de4 d33d 17e0 c2bc 1f3c 1f3e
00000330: 372c 473e f011 483e ca92 81bd 6412 25be
00000340: 3766 25bd 78a8 30bb a4a7 7cbd 41b0 dbbd
00000350: 096b 9f3d 269d b93d a63c 8c3d c3f3 18be
00000360: e61d 0abe 3882 303e 5cf9 57bd 0c3c 6a3d
00000370: dbdb 893d 0451 0cbe bfce 7d3d 84b3 133e
00000380: 5743 bc3d d0ac 393e 4455 71be 0cae b83d
00000390: b05b a9bd cc3c b8bd 897b f7bd ab16 afbd
000003a0: ff40 143d 849e 413c c73e e83d 6e90 af3d
000003b0: 8315 a4bd 4309 933d 16ae 1d3e 1b97 293e
000003c0: 3c1d 11be 1bae b83d 8ae3 f63d d411 f33d
000003d0: ecbc c9bd 8f3e e53d 371a d93d 165b a33d
000003e0: 743c 803d aba5 e33d 6f9b ad3d a01e 0fbe
000003f0: ec24 01be 2021 21be 2cf6 b83d 9de5 373e
0.09359437 0.16385041 0.075967334 0.11332256 0.19969268 0.12777527 0.16900474 0.20483705
0.09775629 0.20504545 0.17508036 0.104721256 0.1286262 0.1541233 0.17387582 0.10325189
0.18227828 0.080622464 0.16326483 0.18238235 0.12932044 0.19596547 0.18205081 0.061632067
0.09775801 0.043289546 0.014055607 -0.079876944 -0.04635027 -0.1783147 -0.09641275 0.1411588
-0.10304859 -0.087203205 -0.030314425 0.105652146 -0.022869745 0.048185572 0.09244835 0.101697356
0.07956078 -0.0059265015 -0.13438122 0.090081096 0.102514595 -0.036922585 0.069137335 0.051181857
-0.12091259 -0.09834148 -0.12474331 -0.07977929 -0.017625943 0.25504726 -0.12088351 -0.04393631
-0.094014674 0.021668542 0.030826157 -0.028174236 0.07658371 0.06992987 -0.014955226 0.08528858
-0.034769278 -0.03730118 0.110690735 0.03869924 0.009426286 0.06333519 0.11285744 -0.15904586
-0.06340775 0.020789152 -0.13594913 0.062605046 -0.020864401 -0.017147446 -0.130385 0.1372251
-0.026963618 -0.024188517 -0.031074526 0.025519041 0.1319951 -0.068613164 0.17419317 0.14045015
0.005423315 -0.06957099 -0.053967495 0.016190939 0.108573645 0.12335819 0.057420053 -0.1478609
-0.14511873 -0.034365904 0.13190484 -0.04092962 0.058614247 0.16471957 -0.00071014895 -0.12237458
-0.09532642 -0.15027933 -0.12476672 -0.00812262 -0.07953839 -0.042254902 0.1182945 0.18052758
0.16954544 -0.13610075 0.18013959 -0.027473945 -0.10591436 0.06601202 0.10222454 0.080149375
-0.10351856 -0.12304823 -0.057143956 -0.24577425 0.14614639 0.097249724 -0.05378768 -0.110576436
-0.039700333 0.15402792 -0.0049441 0.19949104 -0.07738296 0.18936841 -0.01901867 -0.02018946
0.024581803 0.022100987 -0.07476482 0.1271433 0.15576155 -0.19170333 0.08396712 -0.05449134
-0.12083518 -0.05807397 -0.031600047 0.19445442 0.14041597 0.16105747 -0.0142318085 -0.003247705
0.20488635 0.15579332 0.07138035 0.00500942 0.1917557 0.0937629 -0.04041003 0.037215028
0.1749394 -0.12735008 0.071591824 -0.112100355 0.057542965 0.24299727 0.16347313 0.13711719
0.067451976 -0.09310669 -0.10078963 -0.085998595 -0.017866071 -0.04816267 -0.053369965 0.04558915
-0.120844275 0.16906558 0.03015878 -0.01576298 0.11922739 -0.04271878 -0.030529128 -0.08333209
0.10767712 0.02162257 -0.076694354 0.24027294 -0.008782009 0.08357307 0.1799462 0.109189436
0.0037564975 0.17904149 -0.17295194 0.1542256 -0.024078827 -0.048873495 -0.06252281 -0.08667356
-0.031062623 0.10346339 -0.023788495 0.15550278 0.1945046 0.19538093 -0.06326826 -0.16120297
-0.040380683 -0.0026955884 -0.061683312 -0.10726977 0.07784087 0.09063177 0.06847505 -0.14936738
-0.13487968 0.17237175 -0.052728042 0.05718617 0.06731387 -0.1370278 0.061964747 0.14423949
0.091925316 0.18132329 -0.23567683 0.09017572 -0.08269441 -0.08995971 -0.12084109 -0.085492454
0.036194798 0.011817578 0.11340099 0.0857247 -0.080119155 0.07179501 0.1539844 0.16561548
-0.14171308 0.09017583 0.120551184 0.11868635 -0.09850487 0.11193573 0.10600703 0.07976358
0.062615305 0.11115583 0.08476912 -0.13976526 -0.12611741 -0.15735292 0.090313286 0.17958684

layer_1.bias f4 [87]
00000000: 76a8 f73d 6393 613e 6a38 df3d ca7d 5f3e
00000010: ba1a 343e 5f76 833d 0033 b33d 4916 6d3e
00000020: c02c 553e e31e 4b3e 3b6e 323e 714d 253e
00000030: 2e71 253e 8f8a 6e3e 7a60 173e fccd 1e3e
00000040: eab4 4b3e 3f78 1d3e 960e 2b3e f347 013e
00000050: 0402 5b3e 6d34 303e c6ed 313e 5188 b43d
00000060: eb5c 053e 53d0 413e 7f77 343e 559d 1a3e
00000070: 1ed2 193e 5df2 6d3e d0fa 163e 87c3 3f3e
00000080: 2662 593e 5d9a 193e 5fd5 133e 3449 6a3e
00000090: 45cc 5c3e e0b7 613e 312c 563e d159 b83d
000000a0: 2045 663e d9e9 ee3d 42fe 263e 0a10 253e
000000b0: 1be9 383e 52c6 333e b16e 603e 4188 263e
000000c0: f881 013e dae1 fc3d d079 f13d ed6e 5e3e
000000d0: ecc6 6f3e 58e2 1c3e 86d6 363e d1a5 543e
000000e0: ed26 0f3e 935c ed3d 6656 263e 0bc6 923e
000000f0: 7aee c93d ffe1 633e b853 a73d 2026 cc3d
00000100: c500 383e f3e5 653e 402a 2a3e e8c5 fe3d
00000110: c68f 863d b31b 183e 89ff 313e ed7f 273e
00000120: 610c 8e3e d22a 183e 14bb 813e e341 643e
00000130: aaf9 e33d 5039 423e 54be 4e3e 123f 0d3e
00000140: b72d 553e 8c0d 403e c1e3 823e b1b2 e03d
00000150: b6de 683d 0641 c73d 5cdf 6c3e
0.12092678 0.2202888 0.10899432 0.21825328 0.1758832 0.06419062 0.08749962 0.23153032
0.20817852 0.19836001 0.17424862 0.16142823 0.16156456 0.23295043 0.14782897 0.15508264
0.19893232 0.15377901 0.16704783 0.12625103 0.21387488 0.17207499 0.1737586 0.08815063
0.13023727 0.18927126 0.17623709 0.1509908 0.1502156 0.23236986 0.14744115 0.18726932
0.21228847 0.15000291 0.14436863 0.22879487 0.21562298 0.22042799 0.20915295 0.09001506
0.22487307 0.11665697 0.16307929 0.161194 0.18057673 0.17556122 0.21917225 0.16262914
0.12647235 0.12347765 0.11790812 0.21722002 0.23415726 0.15320718 0.17855272 0.20766379
0.13979693 0.11589923 0.16243896 0.2866672 0.09859939 0.2225418 0.08170265 0.09968209
0.17969044 0.22451 0.1661768 0.12440091 0.06570391 0.14854316 0.17382635 0.16357394
0.2774382 0.14860085 0.25338042 0.22290759 0.11131604 0.18967175 0.20189792 0.1379359
0.2081822 0.18755168 0.25564387 0.10971583 0.05685302 0.09729199 0.2313208

layer_2.weight f4 [58, 87]
00000000: 8a23 143e 5f81 1d3e 29b3 d43c ced4 b13c
00000010: 5d74 083e 8392 89be 27a4 543d eb6a 6cbd
00000020: db47 83be ab93 493e d8fd c93d 8da6 de3d
00000030: 6946 09be 71ef a1bd f1a3 293e e77e 4c3d
00000040: e386 95bd 11f7 753e 81fc bdbd 8c59 443d
00000050: ee06 1d3e b850 30bd bba7 6a3d 8cbd 103e
00000060: 75cd 8b3e 8780 743e 0687 e03d bff6 c23c
00000070: d2dd a23c a477 253d 9a91 483d ca66 7ebe
00000080: 0aac a0bd b6df cbbd 3e02 293e 98ad d43d
00000090: f9d6 9b3e b43b f7bc 1437 393d 84d2 6abe
000000a0: 6af7 29be a529 cebb d0e0 ef3a 0cb9 4f3d
000000b0: 75df 44be b27f 6f3d 4ee7 b03d 87b9 963d
000000c0: 4480 4ebc a5c8 6f3e cc2e 333e bbe9 ab3d
000000d0: e920 df3d d0d5 1c3e 023d b03d 5f8d 5ebd
000000e0: fcf5 50bc 52cd 303e e105 703e 2e79 b6bd
000000f0: 5608 26be 3696 35be 9401 093e 1223 273e
00000100: 548b d63d 895b 1b3e 6b7e 2ebe 2096 08bd
00000110: 6fea 5c3e 223b 45be def8 98bd 5642 0d3e
00000120: 6422 813d cc45 473e cdc2 1bbe 4be2 47bd
00000130: 1813 5d3d 47e2 713e 3ee7 ab3d 0209 653e
00000140: 871a 11bd 3340 f53d 2440 96be bc30 573e
00000150: 09f0 673e 83ab 8dbe 7cee 73be 4bbc 2a3e
00000160: 2f4d aa3c ab5d c33d 1d5e 94bd 5cf5 0d3e
00000170: bb23 afbd b3a2 bebd 3257 643d c519 7a3e
00000180: a794 033e 832f dc3d ebd4 313d 98b8 9e3e
00000190: d310 703c 697b b93d 4ed9 b23d 6375 f43d
000001a0: 8c7d a23e 9a96 763e eba8 9ebe 734f c6bc
000001b0: 5e29 f63c 26b6 263e 9a13 40be d1f8 8e3b
000001c0: 1a9b 6dbd ed0c 253d f2a0 693e 6573 273e
000001d0: 5837 e43d ec86 f63d fc57 b03d 3214 c73d
000001e0: dc64 313d 21eb 943e d383 b4bd 650c c4bc
000001f0: 6993 1bbd bb3d e53d 2d42 07be f1ef b4bd
00000200: dfd9 6bbe d71c a6bc cc5a ebbd 36d9 74bd
00000210: 963f 423e 00e4 d0bd 4a81 553e 17e8 1d3e
00000220: 91fe bcbd f446 133e e8e6 e43d 7bfc 1ebd
00000230: d7b2 203e 91dc 6cbc d248 153e 03a4 513d
00000240: a315 a4bd 2179 663e b30f 73bb b061 9ebe
00000250: 10b1 0c3e b1c4 5c3d 5257 8ebc c1d6 b03c
00000260: aaf3 3fbd 951d 043d dcff 623c 2015 993d
00000270: 0e2a edbd d0d1 cd3d 47ef 503d a36a e63d
00000280: e425 943e 0a6d 15be 97f2 dfbd faed f43c
00000290: 3e9c 513e 323d 2d3c 51c2 01be fdde 233e
000002a0: f241 1d3e 1c8d 2bbe 9d9a d23d f4aa 61be
000002b0: 4dd6 6fbd b5a7 a9bd ae4d 933d d26c a33e
000002c0: 085c 0bbe a580 413e 947c d93d 62f7 a73d
000002d0: a93d 393e d4aa de3d 533f 843e 1614 17be
000002e0: aac7 7e3e 3bf4 373e 7505 883e 5f3c 263e
000002f0: ceb8 dfbc 68d8 e13d 5c1c c23d e4ad edbc
00000300: 26ee 2bbe a979 ca3d 0720 053e 17bb 803e
00000310: 2343 173e da9f 90be b54a b03d 2450 773e
00000320: 125c 5cbe b5b4 4f3e 8112 853e e015 803e
00000330: d446 bd3e 771a 32be 6c5b 893e a835 253e
00000340: 61ab 69be 4a87 853d 98fe a2be 0e41 423e
00000350: 1004 a8bd d485 17be 12e2 283e 2759 353e
00000360: d4c4 38bd c639 833e 5f0c 8b3e 925c f9bc
00000370: f36a c9bd d9cf ce3d b8f2 0a3e 1582 10be
00000380: 1cd3 a83c 1ba2 ba3d d81a 363e 369f 8dbe
00000390: 23c1 88be 4820 aebd 1649 6c3d deb1 133e
000003a0: 6923 00be e731 9a3e 57f1 1ebe 7e6d 2c3e
000003b0: 2c55 6f3d 2dbd 8dbc eeb0 383d 345a 1abe
000003c0: b176 a53b 7b71 4b3e 93a6 0ebd 6497 e0bd
000003d0: 7b86 aebc 986c a8bd b73b 1d3e 75fe f1bb
000003e0: 58ef 373b 8799 943d 27d2 d5bd 3a18 8ebe
000003f0: 3a05 393e c776 cebd 36ed 0c3d 8d7f 1b3d
0.14466682 0.15381382 0.025964336 0.021707918 0.13325639 -0.26869592 0.05191436 -0.057719152
-0.2564076 0.19685237 0.0986287 0.10871611 -0.13405766 -0.07906998 0.16566445 0.04992571
-0.07301118 0.2402003 -0.09276677 0.04793696 0.15334675 -0.04304573 0.057288866 0.14134806
0.2730519 0.23877154 0.10963254 0.023799298 0.019881163 0.0403973 0.04896698 -0.24843898
-0.07845314 -0.09954779 0.16504762 0.10384673 0.3043745 -0.030179836 0.045218542 -0.22931868
-0.16598287 -0.0062915855 0.0018301252 0.050713584 -0.19225867 0.05847139 0.08637868 0.07359605
-0.012603823 0.23416384 0.1749832 0.0839419 0.10894949 0.15315938 0.08605386 -0.05433404
-0.01275396 0.17265823 0.23439743 -0.08909832 -0.16214117 -0.17733082 0.13379508 0.16321972
0.104757935 0.15171637 -0.17040412 -0.033346295 0.21573804 -0.19260839 -0.07469343 0.13794836
0.063053876 0.19460219 -0.1521103 -0.048799794 0.053973287 0.23621474 0.08393715 0.22366717
-0.03542569 0.11975136 -0.2934581 0.21014684 0.2265016 -0.27669916 -0.23821443 0.1667339
0.020788757 0.0953935 -0.07244513 0.13863128 -0.08551737 -0.09308376 0.05574722 0.24423893
0.12849675 0.1075125 0.043415945 0.3100021 0.014652449 0.09056742 0.08732854 0.11936452
0.3173641 0.24080887 -0.3098825 -0.024207806 0.030049022 0.16280422 -0.18757477 0.0043631573
-0.058009245 0.04029553 0.22815302 0.16352613 0.111433685 0.12037453 0.08610532 0.09720649
0.043309078 0.2908564 -0.08814206 -0.023931691 -0.03798238 0.11193415 -0.13208838 -0.08834828
-0.2303233 -0.020277424 -0.114919275 -0.05977746 0.18969569 -0.101997375 0.20850101 0.15420566
-0.09228242 0.14382535 0.11176854 -0.038815003 0.15693222 -0.014456884 0.1457856 0.051181804
-0.080119394 0.22507145 -0.0037088215 -0.30933905 0.13739419 0.053898517 -0.017375622 0.021586778
-0.046863236 0.032254774 0.013854947 0.074747324 -0.11580287 0.10049784 0.051009443 0.11250808
0.28935158 -0.14592376 -0.10934942 0.029898632 0.20469758 0.010573672 -0.12671782 0.16003032
0.15357187 -0.16753048 0.102833964 -0.2203787 -0.058553983 -0.08283941 0.071925506 0.3191896
-0.13609326 0.1889673 0.106194645 0.082014814 0.18089928 0.10872427 0.25829563 -0.14753756
0.24880853 0.1796426 0.26566663 0.16233967 -0.027309801 0.11027604 0.09478065 -0.029013582
-0.16790065 0.09886486 0.13000499 0.25142738 0.14771704 -0.28246957 0.08607999 0.24151665
-0.21519497 0.20283778 0.2599068 0.2501669 0.369681 -0.17392908 0.26827562 0.1613375
-0.22819282 0.06519945 -0.31834865 0.18970129 -0.082039 -0.14797145 0.16492489 0.1770979
-0.045109585 0.25630015 0.27157876 -0.030439649 -0.09834852 0.100982375 0.13569152 -0.14112122
0.020608477 0.091129504 0.17783678 -0.2766053 -0.26709852 -0.08502251 0.057686888 0.1442332
-0.12513508 0.30116197 -0.15521751 0.16838643 0.058430836 -0.01730212 0.04509061 -0.15073472
0.0050495495 0.19867508 -0.034826826 -0.109663755 -0.02130436 -0.082238376 0.1535481 -0.00738507
0.0028066244 0.072558455 -0.10440474 -0.27752858 0.180684 -0.10081249 0.03440591 0.03796344

layer_2.bias f4 [58]
00000000: 7b1c 9abd abf6 963b 3551 5d3d 5140 373e
00000010: f4c0 d83d c917 1e3c 7d17 7d3e 802f 0e3e
00000020: ba16 b03d 2e8c 28be 34bb 8eba 6aa3 523b
00000030: 3bcb 3b3e 7a6c ca3d 1c63 d53d f8a0 95bd
00000040: 9bb6 8f3d 674c 0f3e 3f1b 9ebd 8c60 afbd
00000050: 67fc a0bd bfe1 7d3d e48c 5f3e 057a f63d
00000060: 5a7c 8e3b 87d0 90bd fcca ac3d 9068 5a3d
00000070: 1e44 f53d af4a 09be 19c2 163e c9f0 363d
00000080: fb01 393c 6af7 833e c97e 803e 4e21 e33c
00000090: 000b df3d 1acd 57bd da91 be3d 63f0 263d
000000a0: 054d 2a3e b77e 0dbe 26ad 493c d4b5 343d
000000b0: 6f92 f93d 3ca7 1a3d 2c7d 8ebd c00e 7e3c
000000c0: b3dd 0f3e 96ef 4d3e e225 62bd abed 743c
000000d0: 5438 cabd 07bc f63d 0c0e cfbd 6bb3 dbbd
000000e0: 6e6a d6bb c6c4 9e3d
-0.075249635 0.004607042 0.054032523 0.17895629 0.10583678 0.0096492255 0.24715991 0.13885307
0.08598085 -0.16459724 -0.0010889531 0.003214086 0.18339245 0.098839715 0.10419294 -0.07306093
0.07017251 0.13993989 -0.077200405 -0.08563337 -0.07860642 0.061982866 0.2183109 0.12034992
0.00434832 -0.070710234 0.08437154 0.053322375 0.11975883 -0.13407396 0.1472248 0.044663224
0.011291976 0.257747 0.2509673 0.027725842 0.1089077 -0.052685834 0.09305163 0.040756594
0.16630943 -0.13817869 0.012309348 0.044118717 0.12186133 0.037757143 -0.069574684 0.015506446
0.14049415 0.20110926 -0.05521191 0.014949243 -0.09874025 0.12047582 -0.10110101 -0.10727581
-0.006543449 0.07752375

layer_3.weight f4 [29, 58]
00000000: 4124 4abe ffc3 61be aa13 fcbc b576 1abe
00000010: 83c3 333e 33ec 9fbe ecc4 2bbe 113c 0cbd
00000020: 9a99 1c3d fa3d 85bd 7cc7 5dbe 6a9d 0b3d
00000030: 01da bebd e56b 15be 2aa5 68be 9a8c 98be
00000040: 56d0 443e 0cad 9cbc 958a 4dbe 9fb2 fdbb
00000050: 503f dd3b 80ac 9a3d fc81 89be 786c e9bd
00000060: 09bd babe 2d06 403e bd23 b3be ae6a f3bc
00000070: c30f 37bc 4a6e 103e 7970 bf3c e925 343e
00000080: e284 e63d 0dbd ca3d 7cc2 3bbd 534e d7bd
00000090: 9598 103e 93c0 bf3d acbc 133e 14fc 58be
000000a0: ae3b a1be 9c8d 8f3d 8a63 a8be f3ee da3d
000000b0: 4454 44bc 84c0 c9bd 0aed 4fbe 3b1b a4be
000000c0: 4988 393e 0179 9dbe 05e6 423e 7448 a6be
000000d0: b6f1 80bc 7806 28bc 742f 063e 931a 98be
000000e0: 592f f8bd 81b7 1e3e e25c 23be 4165 83be
000000f0: 9eb6 c4be ca5f 47bd 8c68 46bc 84f3 97be
00000100: 433a 9a3d 267c f63d a64c f63c 967f a0be
00000110: 6193 f0be fde7 c9be c37a 5d3e 7ef1 943c
00000120: 0345 57be c876 273e ec2e 64be 4a7b 743c
00000130: 457b 93be 2942 643c c604 413d e947 4d3e
00000140: 5703 833e 6c77 9a3c 1e3c c5be f072 aabe
00000150: c9ad 353d 7bc7 46be 2026 a0be 2249 babe
00000160: 30aa 92be eee1 893e 9063 eebd 3432 8b3c
00000170: 5a89 0a3e f1c1 6abe e824 823e c3d2 2f3e
00000180: 8100 1fbd a48b c13d 4215 86be 68a7 acbe
00000190: 1417 5a3d d986 033e b384 f43d 077f 05bc
000001a0: 5243 463e e1b8 8abe ba7f 1e3e abe6 893e
000001b0: 3d54 a1be ad10 f3be 18de 383c ac55 51be
000001c0: e7b9 adbe b12e 3cbd 3810 9d3d 89f2 423e
000001d0: 6046 9d3d 004e 323e 53ad a1be caa9 0ebe
000001e0: da67 88be 6fc8 21be 7cf8 e8bd 9e01 3abe
000001f0: c80c 86be 309f 90bc 3dc0 953d c255 7ebe
00000200: 787d cebe 8b04 bebd 951a 693c bff5 ef3d
00000210: 2824 263e d0b9 68be 26ce 39be c2c8 013d
00000220: e9b9 cabd 12aa a2be d8d8 493d ab79 ba3d
00000230: 38d5 acbe e964 043e 5800 b4b9 c49b 4f3e
00000240: 0c8e 0abe b6c6 253e 9017 0e3e a455 bc3d
00000250: 4cec 34bd a513 bc3d 9caf 8fbe 04a4 84be
00000260: f1b3 84bd fa02 353e 2762 75be b08d aabd
00000270: 5947 90be 700c 1bbd e265 5cbe 1974 68be
00000280: 66cd 3f3e bfd2 6bbc 30e7 ddbd 863c 4d3e
00000290: c2f9 553d e403 133e 3fd1 723d 036d acbe
000002a0: b238 14bd 8182 f4bc 3795 8b3c 7614 8f3d
000002b0: 5786 a0be 2fbe 92be 7035 083d c586 463e
000002c0: ecc7 28be 2f66 9abd 776d 053e 7773 303e
000002d0: 2dc1 86be 38e7 d0bd 0008 2abe c586 053e
000002e0: e4aa 2d3e 6379 d53d 8491 95be d02d 803d
000002f0: 6d5e 9ebe b09c 40bc 7fb9 9c3d ab97 5bbe
00000300: f880 44be e820 ce3c 4bf0 d03b f7a9 87bd
00000310: 8066 8e3b d593 82be fec2 663d 51aa ec3d
00000320: 1818 263e f259 793d 4924 37be 2f1b ebbd
00000330: b2b8 1e3d 3583 293e 4e80 5cbe 7a71 493d
00000340: 5c6c a2be 7fe0 2dbe e010 5abe 5437 c93d
00000350: 22c0 4abe cd91 b23d 94ba 013e dc01 0abe
00000360: 1db8 06be 7c84 1cbe dd7f 86be 7f48 3ebe
00000370: 2e17 373d 3b2a 5cbe b21e 83be 7704 96bd
00000380: 377a 153c 44fe 56bd b59e 08bc 4317 043e
00000390: 7ce9 60bd 1c4b 3e3d 45c9 9fbe 2e6c 6abe
000003a0: dea9 0d3e a93f 533d fe0f 81be b874 5dbd
000003b0: 1b35 e93d 82b3 d73d dee1 3d3e afc1 49be
000003c0: 3ea9 eabd 02c9 cb3d 9171 d43d 8347 89be
000003d0: cfc6 b3be 8e23 6dbe db9e 3dbe c5e2 153e
000003e0: 3e37 8ebe 65b4 323e 0185 95be fbb1 86bd
000003f0: 9648 d53d 6da6 a3be 3102 473e 49ab 66be
-0.19740392 -0.22047423 -0.030771095 -0.15084346 0.1755505 -0.31234893 -0.16774338 -0.03423697
0.038232423 -0.06505962 -0.21658128 0.03408567 -0.09318925 -0.1459194 -0.22719255 -0.2979477
0.19220099 -0.019125484 -0.20072396 -0.0077422406 0.006751932 0.07552433 -0.26856983 -0.11397642
-0.36472347 0.18752356 -0.34988204 -0.029713955 -0.0111731915 0.14104572 0.02336906 0.17592587
0.11255814 0.0989934 -0.04583977 -0.10512986 0.14120705 0.093629025 0.14427441 -0.2118991
-0.31490844 0.07009432 -0.32888442 0.10690107 -0.011982981 -0.098511726 -0.20305267 -0.32052025
0.18118395 -0.3075638 0.19033058 -0.32477152 -0.015740257 -0.0102554485 0.1310404 -0.29707775
-0.12118406 0.15499689 -0.159534 -0.25663188 -0.38420576 -0.048675336 -0.012109887 -0.29677975
0.07530644 0.12035398 0.030065846 -0.3134734 -0.4698744 -0.39434806 0.21628861 0.018181559
-0.2102242 0.16353905 -0.22283524 0.0149219725 -0.28804985 0.013931789 0.047123693 0.20046963
0.25588486 0.018855773 -0.38522428 -0.33290815 0.044355188 -0.19412033 -0.31279087 -0.3638392
-0.28645468 0.26930183 -0.11640084 0.016991712 0.13528958 -0.22925545 0.25418782 0.17170243
-0.03881884 0.094504625 -0.26188093 -0.3372147 0.053244665 0.12844409 0.11939373 -0.008147961
0.19361618 -0.27094176 0.15478411 0.26933798 -0.3150958 -0.4747366 0.01128342 -0.20442837
-0.33930895 -0.045942966 0.07669109 0.19037832 0.076794386 0.17412567 -0.31577548 -0.13931957
-0.26641732 -0.15799116 -0.1137552 -0.1816468 -0.26181626 -0.017654032 0.07312057 -0.24837402
-0.403301 -0.0927821 0.014227529 0.11716794 0.1622473 -0.22727132 -0.18145046 0.0316856
-0.09898741 -0.31770378 0.049279064 0.091052376 -0.33756423 0.12929119 -0.00034332532 0.20274264
-0.13530749 0.16189083 0.13876176 0.09196022 -0.044170663 0.091834344 -0.28063667 -0.25906384
-0.064796336 0.17676917 -0.23963223 -0.08327806 -0.28179434 -0.03785366 -0.2152324 -0.22700538
0.18730697 -0.0143935075 -0.10835111 0.20042619 0.05224014 0.14356953 0.059281584 -0.3367692
-0.03618688 -0.029847385 0.017038925 0.069863245 -0.31352493 -0.28660724 0.033254087 0.19387348
-0.16482514 -0.07539021 0.13030039 0.17231546 -0.26319256 -0.102003515 -0.16604614 0.13039692
0.16959721 0.10423543 -0.29212582 0.06258738 -0.30931416 -0.011756107 0.07652568 -0.21444575
-0.19189823 0.025162175 0.0063763014 -0.06624215 0.004345715 -0.25503412 0.056338303 0.11555923
0.16220129 0.060876794 -0.17884935 -0.11479794 0.038750358 0.16553958 -0.2153332 0.049180485
-0.31723297 -0.1698017 -0.212955 0.09825006 -0.19799855 0.087192155 0.1266883 -0.13477272
-0.13156171 -0.15284914 -0.26269427 -0.18582343 0.04469984 -0.21500485 -0.25609356 -0.0732507
0.009123377 -0.05248858 -0.00833862 0.12899499 -0.054910168 0.04645835 -0.31208244 -0.2289283
0.1383433 0.051574383 -0.25207514 -0.05406639 0.11387082 0.10532285 0.18543193 -0.1970279
-0.11458062 0.099504486 0.103732236 -0.26812372 -0.35112616 -0.23158094 -0.1851763 0.14637287
-0.2777652 0.17451628 -0.29203036 -0.06576916 0.10414235 -0.3196291 0.1943443 -0.22526278

layer_3.bias f4 [29]
00000000: f7f0 6dbc 2850 3dbd 451e 00bd 463c b03c
00000010: a613 c93c 92b9 123d ea61 683d a026 a73d
00000020: ebc7 9abc 3904 c53c b991 58be cc6b 03be
00000030: 3969 0bbc 8658 c33c b2f7 c0bd 8180 e6bd
00000040: 4890 bdbc f52e 593d c48a d33a b403 f7bd
00000050: 57cd cdbd 2ed8 1b3e 5f9c d93c 71d4 213e
00000060: e39f 84bd 18d6 353e 7ebe 303d 44b3 9fbc
00000070: 5ada 34be
-0.0145227825 -0.04621902 -0.031278867 0.021513116 0.024545502 0.035821505 0.056734003 0.08161664
-0.018894156 0.024049865 -0.21149339 -0.1283409 -0.008508974 0.023845922 -0.09422244 -0.11254979
-0.023140088 0.053023297 0.0016139378 -0.12061253 -0.10048931 0.15219185 0.026563821 0.15803696
-0.064758085 0.17757452 0.043150418 -0.01949466 -0.1766142
